tutorials/fast_use/DMD_results/kernel_k1_real.npy (npy, 305712 bytes, 1 tensors)

array f8 [38198]
1.0000056792205296 0.9998745611776769 0.99949126568894 0.9988584851945655 0.99797927108056 0.9968564361706928 0.9954931177629446 0.9938925345634917
0.9920579655193342 0.9899927332022328 0.9876999286283769 0.985183093935003 0.9824455816571277 0.9794909444391839 0.9763226710902143 0.9729441718748039
0.9693590393597538 0.9655706401611771 0.9615827294748808 0.9573989362114614 0.9530227646953873 0.9484579563793959 0.9437079659392931 0.9387765166360974
0.9336673319435114 0.9283840291640291 0.9229304661690636 0.9173101252088709 0.9115267335855637 0.9055840507515671 0.8994857244005214 0.893235592148905
0.8868372002344994 0.8802944958144078 0.8736111165016466 0.8667906674114401 0.8598370535363838 0.8527539645223469 0.8455448741339305 0.838213669076916
0.8307641012835573 0.8231997897828937 0.8155243096768207 0.8077414149746229 0.7998549263531023 0.7918683324857511 0.7837852211761773 0.7756093406276532
0.7673441527148482 0.7589933352457731 0.7505604905918549 0.742049213421973 0.7334628543443515 0.7248049717140268 0.7160791688429737 0.7072889284665648
0.6984376000909919 0.689528689678387 0.6805655835123255 0.6715515788046009 0.6624900947730882 0.6533845254644999 0.6442380637406024 0.6350540056082887
0.6258356581949153 0.6165861648599144 0.6073087197489494 0.5980065714244245 0.588682684657173 0.579340178149647 0.5699821905583443 0.56061166754476
0.5512317384994809 0.5418452642747895 0.5324551468279386 0.5230643824050848 0.5136757099746295 0.5042920276120879 0.4949159794166281 0.4855504939385277
0.4761982655212855 0.46686177914136257 0.45754386988845797 0.4482469824943542 0.438973817752304 0.42972678583494767 0.4205084788169029 0.4113211768489762
0.40216740960998976 0.3930495581324568 0.3839699664741388 0.3749307863563642 0.3659343400639848 0.3569827007244139 0.34807831681275037 0.33922301809870464
0.3304190548286832 0.3216683584887176 0.3129729612695099 0.3043348961951961 0.2957560549013674 0.28723828508623683 0.2787833277683613 0.2703932360506973
0.2620695383466692 0.25381398752253403 0.24562829600167446 0.2375140188593917 0.22947280416077684 0.22150614186689363 0.21361560943731472 0.20580257326933238
0.19806849683827432 0.19041484749312615 0.18284274213697493 0.17535367269928473 0.1679488035109249 0.16062937703988414 0.15339666658316722 0.14625163647223613
0.13919546268198565 0.13222925053886275 0.1253538505604335 0.11857032245146522 0.11187962670981856 0.10528273526136304 0.09878032181418767 0.0923733241665462
0.08606243089863846 0.07984844113230188 0.07373207233841854 0.06771392120366274 0.06179465856800299 0.0559749225167324 0.05025509201606619 0.04463589226940454
0.03911764534766143 0.03370080622503183 0.028385927598553115 0.023173152847202873 0.01806294065268437 0.013055634866855483 0.008151418343338141 0.0033505490517287515
-0.0013468203906625525 -0.005940510607144106 -0.010430367649292288 -0.014816337359086053 -0.019098290092977168 -0.023276309920288923 -0.027350196979433156 -0.03132024141068148
-0.035186402006766294 -0.03894873302169476 -0.04260740739851837 -0.04616256879876278 -0.049614378704881563 -0.05296314736315188 -0.056208945074265895 -0.0593522207520305
-0.06239312839957217 -0.06533207089300361 -0.06816947710728437 -0.07090558230124248 -0.0735409156459252 -0.076075807576063 -0.0785107853173753 -0.08084633103053254
-0.08308295283784035 -0.08522125942691902 -0.08726160755200792 -0.08920470256078847 -0.09105116617723412 -0.09280152891727649 -0.09445653872834901 -0.0960168001215861
-0.09748299847525174 -0.09885587497626715 -0.10013613808979258 -0.10132458945403007 -0.10242196374399049 -0.10342893197193062 -0.10434646200065442 -0.10517532309997397
-0.10591634120328522 -0.10657045360530769 -0.10713840948050754 -0.10762114984908863 -0.10801951830573484 -0.10833448351435844 -0.10856705456720364 -0.10871802393639479
-0.10878850644236487 -0.10877939528427434 -0.10869172354972603 -0.10852631419979442 -0.10828443790197322 -0.10796707251152704 -0.10757503445858312 -0.10710958580541657
-0.10657172881783378 -0.10596245486821287 -0.10528294241651327 -0.10453410693590265 -0.10371727169111401 -0.10283339950683514 -0.10188355553082444 -0.10086894879381757
-0.09979066416002023 -0.0986498127946046 -0.09744754330642327 -0.09618499264102141 -0.09486327532599358 -0.09348363188740118 -0.09204711970732192 -0.09055494777591781
-0.08900821316405946 -0.08740815427133372 -0.08575585445245461 -0.084052547693765 -0.08229932895128304 -0.08049747524057477 -0.07864807863116649 -0.07675231191502781
-0.07481140633287407 -0.07282654229661965 -0.0707988039551676 -0.06872946246634079 -0.0666196181272541 -0.06447046279870554 -0.06228316501409829 -0.06005887884246832
-0.057798796611392755 -0.055504101137090846 -0.05317589626549321 -0.05081536197204562 -0.04842362982278454 -0.04600191442747912 -0.04355133438238638 -0.04107298818262181
-0.0385680892805246 -0.03603763428684016 -0.03348295118772945 -0.03090491967469193 -0.028304864603639374 -0.02568378349689219 -0.023042846993074056 -0.02038303203580002
-0.017705521103770758 -0.015011361636749826 -0.01230165238220609 -0.009577446654082196 -0.006839764049221408 -0.004089699047564105 -0.0013282779686029458 0.0014433763035715406
00000000: 2510 81f4 0500 f03f 0089 8bef f8fe ef3f
00000010: 4fb1 581b d5fb ef3f afc4 e711 a6f6 ef3f
00000020: c20f 6c39 72ef ef3f a920 0578 3fe6 ef3f
00000030: e5ea 0562 14db ef3f 360a 76b7 f7cd ef3f
00000040: ec89 b458 f0be ef3f 2533 8c3d 05ae ef3f
00000050: 9f0d 77e1 3c9b ef3f e0bb 20b2 9e86 ef3f
00000060: 5d25 6ab7 3170 ef3f b805 a364 fd57 ef3f
00000070: 71a0 d50a 093e ef3f 9d27 e1d0 5b22 ef3f
00000080: 523a 843f fd04 ef3f 910a 2f66 f4e5 ee3f
00000090: e3c6 ef24 49c5 ee3f fe1b 0818 03a3 ee3f
000000a0: e4b9 d698 297f ee3f dbf9 0880 c459 ee3f
000000b0: e2e2 550c db32 ee3f 098e a60c 750a ee3f
000000c0: 864f 0150 9ae0 ed3f 426c 6c6c 52b5 ed3f
000000d0: 82b3 1579 a588 ed3f fcf9 81c3 9a5a ed3f
000000e0: 1cc0 c51c 3a2b ed3f dc3a 3867 8bfa ec3f
000000f0: 8a9c 3049 96c8 ec3f 42e3 fcce 6295 ec3f
00000100: a344 7c68 f860 ec3f e3e4 cb5c 5f2b ec3f
00000110: e57d d94c 9ff4 eb3f 2253 20c8 bfbc eb3f
00000120: 177d 1aff c883 eb3f e50c a5ae c249 eb3f
00000130: d594 b61f b40e eb3f 4edb f778 a5d2 ea3f
00000140: cb84 b698 9e95 ea3f 9d21 e615 a757 ea3f
00000150: 1df5 e46f c618 ea3f ca1a 1e86 04d9 e93f
00000160: de64 c75b 6998 e93f 9975 d841 fc56 e93f
00000170: 1c46 81be c414 e93f fef8 0eae cad1 e83f
00000180: bffc 1553 158e e83f e366 1864 ac49 e83f
00000190: 1d60 186f 9704 e83f cf6f f5fd ddbe e73f
000001a0: 74ac 8717 8778 e73f acad 2f32 9a31 e73f
000001b0: bee0 70dc 1eea e63f e5c6 1264 1ca2 e63f
000001c0: 4d00 56cf 9959 e63f 2451 7a78 9e10 e63f
000001d0: bbfe 7e79 31c7 e53f aa5f 91bc 597d e53f
000001e0: e92d 5f6d 1e33 e53f e4a3 12aa 86e8 e43f
000001f0: 0656 d324 999d e43f 3c01 29c7 5c52 e43f
00000200: fbc4 9380 d806 e43f 23a9 a7e8 12bb e33f
00000210: 3bb7 3cb2 126f e33f a4f3 61ad de22 e33f
00000220: 875e ca11 7dd6 e23f 662b cd69 f489 e23f
00000230: 5504 784a 4b3d e23f 6b8b 3be1 87f0 e13f
00000240: 7aeb 2bbe b0a3 e13f b4af 31e1 cb56 e13f
00000250: decf 4660 df09 e13f 9d3b 0484 f1bc e03f
00000260: 51e6 e20a 0870 e03f 3e47 c708 2923 e03f
00000270: ba2e 7712 b4ac df3f a772 0161 4213 df3f
00000280: a8da 344a 087a de3f 9d87 4a3a 10e1 dd3f
00000290: 48ff 6915 6648 dd3f 0b03 961c 14b0 dc3f
000002a0: 61f8 c2a3 2518 dc3f 3d15 d8c6 a480 db3f
000002b0: 4865 0d65 9ce9 da3f 4cfd ad0e 1653 da3f
000002c0: 2eaf f25f 1cbd d93f bab6 7855 b927 d93f
000002d0: e5c4 29c4 f692 d83f 6381 6ab2 ddfe d73f
000002e0: d9b8 c3dd 776b d73f df57 36f8 cdd8 d63f
000002f0: 5014 ca46 ea46 d63f d532 3276 d4b5 d53f
00000300: 25b9 9df6 9525 d53f af7d f7e1 3696 d43f
00000310: 16d4 4bbe bf07 d43f af27 8c12 397a d33f
00000320: 794d d9cd aaed d23f 52b0 26b0 1c62 d23f
00000330: abd9 db06 96d7 d13f 3c6e 796e 1f4e d13f
00000340: 4583 1e50 bfc5 d03f 004e eb05 7d3e d03f
00000350: b852 267d bf70 cf3f cbda abff db66 ce3f
00000360: cb91 9866 5d5f cd3f 9339 9731 505a cc3f
00000370: 6064 399c c157 cb3f 34ed cf1c bd57 ca3f
00000380: f4e5 24fa 4e5a c93f 66f1 5383 835f c83f
00000390: c006 e516 6467 c73f 950b bd38 fd71 c63f
000003a0: 10aa 3dad 587f c53f 49e2 94e0 808f c43f
000003b0: a122 2581 80a2 c33f ff3e d1a5 5fb8 c23f
000003c0: 7340 fc2b 28d1 c13f f2ca 5159 e3ec c03f
000003d0: 89d8 4a50 980b c03f 2589 34e9 9f5a be3f
000003e0: 11af cea9 24a4 bc3f 53ee c730 cff3 ba3f
000003f0: 9427 aecb aa49 b93f 7870 5136 c7a5 b73f
00000400: b4b8 1ffe 2f08 b63f dcc0 4c8b f270 b43f
00000410: c31c 5ce7 1ae0 b23f 2abc 0d15 b355 b13f
00000420: 29ef 3bab 8ca3 af3f 0e04 36bb bea8 ac3f
00000430: 363c 5511 09bb a93f fcbb 0c03 84da a63f
00000440: 67f1 ed5e 3a07 a43f 55b2 2b69 3b41 a13f
00000450: 6c44 cf5a 3311 9d3f 9aeb 7ef6 b3ba 973f
00000460: 2ed1 7d6d 177f 923f ced7 40a6 e9bc 8a3f
00000470: 57ef 9ad9 b0b1 803f 59e8 3953 9c72 6b3f
00000480: 6ecb 0362 f910 56bf adb4 77ac 1355 78bf
00000490: 0301 833f 845c 85bf c1ef 3a23 0758 8ebf
000004a0: 6778 6f8d 808e 93bf 584d 84b7 bed5 97bf
000004b0: 3567 43a6 b001 9cbf 6397 1fe9 3409 a0bf
000004c0: a514 c4bb f303 a2bf 2ffe 189d 16f1 a3bf
000004d0: c81e b05a a3d0 a5bf 9e7f 94c6 9ea2 a7bf
000004e0: 69cc e54b 0e67 a9bf 6fcc a253 fc1d abbf
000004f0: 125b ac39 6bc7 acbf ff5e 260e 6a63 aebf
00000500: 184d f1fb fdf1 afbf 1e8b dd43 9ab9 b0bf
00000510: 77de c20a 8e73 b1bf bb71 1645 de26 b2bf
00000520: 1dfd 9dd3 93d3 b2bf ae54 8e41 b479 b3bf
00000530: 8747 5267 4819 b4bf 2219 c75b 58b2 b4bf
00000540: a52b 4ba5 ec44 b5bf ce9c 297a 0fd1 b5bf
00000550: d5db a1d6 c656 b6bf eee2 2590 1ed6 b6bf
00000560: 0b6f fe14 214f b7bf abef b74b d7c1 b7bf
00000570: 374b bbc0 4d2e b8bf 2987 6398 8e94 b8bf
00000580: 6602 5e52 a5f4 b8bf 5160 0a5e 9e4e b9bf
00000590: 664f 3e9e 85a2 b9bf e555 fc85 68f0 b9bf
000005a0: 602b ac68 5338 babf 3297 4788 517a babf
000005b0: 8e01 bf21 73b6 babf e584 0f1d c5ec babf
000005c0: 9a80 9455 551d bbbf 0766 f484 3348 bbbf
000005d0: 963e dd3c 6c6d bbbf 3eb2 f546 0f8d bbbf
000005e0: feea 73ca 2aa7 bbbf fd24 b907 cfbb bbbf
000005f0: 2a08 caec 0ccb bbbf 44e5 4ac5 f1d4 bbbf
00000600: b4c3 5945 90d9 bbbf 5d80 3969 f7d8 bbbf
00000610: 32f0 fd85 38d3 bbbf 7858 3e6a 61c8 bbbf
00000620: 6368 7467 87b8 bbbf c85b 7be5 baa3 bbbf
00000630: b39d dd96 098a bbbf a453 1fa8 886b bbbf
00000640: 1c66 f3e9 4848 bbbf 284a 43fe 5a20 bbbf
00000650: 696d 81aa d2f3 babf 6c34 9b4a bfc2 babf
00000660: 1995 f111 378d babf 0180 d127 4a53 babf
00000670: a34d 016b 0a15 babf 2758 4024 8cd2 b9bf
00000680: 976e 0387 e18b b9bf e797 b537 1d41 b9bf
00000690: 229e 937b 52f2 b8bf 1f5a c265 949f b8bf
000006a0: 97d8 1da9 f548 b8bf c9ed aa15 8bee b7bf
000006b0: 677d d568 6690 b7bf 2345 30eb 9b2e b7bf
000006c0: be72 9d04 3ec9 b6bf 16c5 ff7b 6160 b6bf
000006d0: 1157 507e 18f4 b5bf ce7d 7dbf 7784 b5bf
000006e0: 0319 549e 9111 b5bf 649f 9187 7b9b b4bf
000006f0: 6e35 9dcd 4722 b4bf 7543 911d 0aa6 b3bf
00000700: 2745 911f d726 b3bf 9fda 71a1 c2a4 b2bf
00000710: 1a57 95d3 de1f b2bf 2e89 9009 4198 b1bf
00000720: a5e9 20b9 fb0d b1bf db46 47e1 2281 b0bf
00000730: 8662 a739 94e3 afbf c3f7 ec90 09c0 aebf
00000740: 705f 63ca cd97 adbf 15f9 5a96 086b acbf
00000750: eca3 cafe de39 abbf 31d2 9b9b 7804 aabf
00000760: 698b e264 fbca a8bf 8df0 091c 908d a7bf
00000770: 6530 bd49 5c4c a6bf 0c99 fcc9 8407 a5bf
00000780: 5414 4254 32bf a3bf f2d6 5f59 8673 a2bf
00000790: 5b54 a668 ad24 a1bf 6c3a 270d 8aa5 9fbf
000007a0: a84e 294f f3fb 9cbf 0a75 a088 d94c 9abf
000007b0: ebca f748 8b98 97bf 77c5 f21f 4adf 94bf
000007c0: 9cb7 6568 6521 92bf 23db 62da 46be 8ebf
000007d0: 5cc0 58d5 9b31 89bf b18a 4421 579d 83bf
000007e0: a6cf 752e 0304 7cbf 2d6b 8e3a 5cc0 70bf
000007f0: aa72 d99b 33c3 55bf c720 4281 f5a5 573f
